…
I1130 10:15:20.628062 18231 net.cpp:275] The NetState phase (0) differed from the phase (1) specified by a rule in layer ava
I1130 10:15:20.628217 18231 net.cpp:275] The NetState phase (0) differed from the phase (1) specified by a rule in layer accuracy
I1130 10:15:20.628677 18231 net.cpp:39] Initializing net from parameters: 
name: "RapidNet"
layers {
  top: "data"
  top: "label"
  name: "ava"
  type: DATA
  data_param {
    source: "ava_train_lmdb"
    batch_size: 128
    backend: LMDB
  }
  include {
    phase: TRAIN
  }
  transform_param {
    scale: 0.00390625
    mirror: true
    crop_size: 224
    mean_file: "ava_train_mean.binaryproto"
  }
}
layers {
  bottom: "data"
  top: "conv1"
  name: "conv1"
  type: CONVOLUTION
  blobs_lr: 1
  blobs_lr: 2
  convolution_param {
    num_output: 64
    kernel_size: 11
    stride: 4
    weight_filler {
      type: "xavier"
    }
    bias_filler {
      type: "constant"
    }
  }
}
layers {
  bottom: "conv1"
  top: "pool1"
  name: "pool1"
  type: POOLING
  pooling_param {
    pool: MAX
    kernel_size: 2
    stride: 2
  }
}
layers {
  bottom: "pool1"
  top: "norm1"
  name: "norm1"
  type: LRN
  lrn_param {
    local_size: 5
    alpha: 0.0001
    beta: 0.75
  }
}
layers {
  bottom: "norm1"
  top: "conv2"
  name: "conv2"
  type: CONVOLUTION
  blobs_lr: 1
  blobs_lr: 2
  convolution_param {
    num_output: 64
    kernel_size: 5
    stride: 1
    weight_filler {
      type: "xavier"
    }
    bias_filler {
      type: "constant"
    }
  }
}
layers {
  bottom: "conv2"
  top: "pool2"
  name: "pool2"
  type: POOLING
  pooling_param {
    pool: MAX
    kernel_size: 2
    stride: 2
  }
}
layers {
  bottom: "pool2"
  top: "norm2"
  name: "norm2"
  type: LRN
  lrn_param {
    local_size: 5
    alpha: 0.0001
    beta: 0.75
  }
}
layers {
  bottom: "norm2"
  top: "conv3"
  name: "conv3"
  type: CONVOLUTION
  blobs_lr: 1
  blobs_lr: 2
  weight_decay: 1
  weight_decay: 0
  convolution_param {
    num_output: 64
    kernel_size: 3
    weight_filler {
      type: "xavier"
    }
    bias_filler {
      type: "constant"
    }
  }
}
layers {
  bottom: "conv3"
  top: "conv4"
  name: "conv4"
  type: CONVOLUTION
  blobs_lr: 1
  blobs_lr: 2
  weight_decay: 1
  weight_decay: 0
  convolution_param {
    num_output: 64
    kernel_size: 3
    weight_filler {
      type: "xavier"
    }
    bias_filler {
      type: "constant"
    }
  }
}
layers {
  bottom: "conv4"
  top: "ip1"
  name: "ip1"
  type: INNER_PRODUCT
  blobs_lr: 1
  blobs_lr: 2
  inner_product_param {
    num_output: 1000
    weight_filler {
      type: "xavier"
    }
    bias_filler {
      type: "constant"
    }
  }
}
layers {
  bottom: "ip1"
  top: "ip2"
  name: "ip2"
  type: INNER_PRODUCT
  blobs_lr: 1
  blobs_lr: 2
  inner_product_param {
    num_output: 256
    weight_filler {
      type: "xavier"
    }
    bias_filler {
      type: "constant"
    }
  }
}
layers {
  bottom: "ip2"
  top: "ip2"
  name: "relu1"
  type: RELU
}
layers {
  bottom: "ip2"
  top: "ip3"
  name: "ip3"
  type: INNER_PRODUCT
  blobs_lr: 1
  blobs_lr: 2
  inner_product_param {
    num_output: 2
    weight_filler {
      type: "xavier"
    }
    bias_filler {
      type: "constant"
    }
  }
}
layers {
  bottom: "ip3"
  bottom: "label"
  top: "loss"
  name: "loss"
  type: SOFTMAX_LOSS
}
state {
  phase: TRAIN
}
I1130 10:15:20.629048 18231 layer_factory.hpp:78] Creating layer ava
I1130 10:15:20.629135 18231 data_transformer.cpp:24] Loading mean file fromava_train_mean.binaryproto
I1130 10:15:20.642724 18231 net.cpp:67] Creating Layer ava
I1130 10:15:20.642809 18231 net.cpp:356] ava -> data
I1130 10:15:20.642848 18231 net.cpp:356] ava -> label
I1130 10:15:20.642895 18231 net.cpp:96] Setting up ava
I1130 10:15:20.642936 18231 data_layer.cpp:32] Opening dataset ava_train_lmdb
I1130 10:15:20.651888 18231 data_layer.cpp:71] output data size: 128,3,224,224
I1130 10:15:20.672301 18231 net.cpp:103] Top shape: 128 3 224 224 (19267584)
I1130 10:15:20.672358 18231 net.cpp:103] Top shape: 128 1 1 1 (128)
I1130 10:15:20.672368 18231 layer_factory.hpp:78] Creating layer conv1
I1130 10:15:20.672386 18231 net.cpp:67] Creating Layer conv1
I1130 10:15:20.672395 18231 net.cpp:394] conv1 <- data
I1130 10:15:20.672415 18231 net.cpp:356] conv1 -> conv1
I1130 10:15:20.672431 18231 net.cpp:96] Setting up conv1
I1130 10:15:20.693153 18231 net.cpp:103] Top shape: 128 64 54 54 (23887872)
I1130 10:15:20.693267 18231 layer_factory.hpp:78] Creating layer pool1
I1130 10:15:20.693292 18231 net.cpp:67] Creating Layer pool1
I1130 10:15:20.693302 18231 net.cpp:394] pool1 <- conv1
I1130 10:15:20.693315 18231 net.cpp:356] pool1 -> pool1
I1130 10:15:20.693330 18231 net.cpp:96] Setting up pool1
I1130 10:15:20.693359 18231 net.cpp:103] Top shape: 128 64 27 27 (5971968)
I1130 10:15:20.693369 18231 layer_factory.hpp:78] Creating layer norm1
I1130 10:15:20.693382 18231 net.cpp:67] Creating Layer norm1
I1130 10:15:20.693389 18231 net.cpp:394] norm1 <- pool1
I1130 10:15:20.693397 18231 net.cpp:356] norm1 -> norm1
I1130 10:15:20.693408 18231 net.cpp:96] Setting up norm1
I1130 10:15:20.693420 18231 net.cpp:103] Top shape: 128 64 27 27 (5971968)
I1130 10:15:20.693428 18231 layer_factory.hpp:78] Creating layer conv2
I1130 10:15:20.693440 18231 net.cpp:67] Creating Layer conv2
I1130 10:15:20.693449 18231 net.cpp:394] conv2 <- norm1
I1130 10:15:20.693456 18231 net.cpp:356] conv2 -> conv2
I1130 10:15:20.693469 18231 net.cpp:96] Setting up conv2
I1130 10:15:20.694411 18231 net.cpp:103] Top shape: 128 64 23 23 (4333568)
I1130 10:15:20.694473 18231 layer_factory.hpp:78] Creating layer pool2
I1130 10:15:20.694490 18231 net.cpp:67] Creating Layer pool2
I1130 10:15:20.694499 18231 net.cpp:394] pool2 <- conv2
I1130 10:15:20.694511 18231 net.cpp:356] pool2 -> pool2
I1130 10:15:20.694522 18231 net.cpp:96] Setting up pool2
I1130 10:15:20.694540 18231 net.cpp:103] Top shape: 128 64 12 12 (1179648)
I1130 10:15:20.694547 18231 layer_factory.hpp:78] Creating layer norm2
I1130 10:15:20.694560 18231 net.cpp:67] Creating Layer norm2
I1130 10:15:20.694566 18231 net.cpp:394] norm2 <- pool2
I1130 10:15:20.694573 18231 net.cpp:356] norm2 -> norm2
I1130 10:15:20.694582 18231 net.cpp:96] Setting up norm2
I1130 10:15:20.694591 18231 net.cpp:103] Top shape: 128 64 12 12 (1179648)
I1130 10:15:20.694597 18231 layer_factory.hpp:78] Creating layer conv3
I1130 10:15:20.694610 18231 net.cpp:67] Creating Layer conv3
I1130 10:15:20.694618 18231 net.cpp:394] conv3 <- norm2
I1130 10:15:20.694628 18231 net.cpp:356] conv3 -> conv3
I1130 10:15:20.694641 18231 net.cpp:96] Setting up conv3
I1130 10:15:20.695019 18231 net.cpp:103] Top shape: 128 64 10 10 (819200)
I1130 10:15:20.695050 18231 layer_factory.hpp:78] Creating layer conv4
I1130 10:15:20.695062 18231 net.cpp:67] Creating Layer conv4
I1130 10:15:20.695070 18231 net.cpp:394] conv4 <- conv3
I1130 10:15:20.695081 18231 net.cpp:356] conv4 -> conv4
I1130 10:15:20.695094 18231 net.cpp:96] Setting up conv4
I1130 10:15:20.695441 18231 net.cpp:103] Top shape: 128 64 8 8 (524288)
I1130 10:15:20.695458 18231 layer_factory.hpp:78] Creating layer ip1
I1130 10:15:20.695473 18231 net.cpp:67] Creating Layer ip1
I1130 10:15:20.695482 18231 net.cpp:394] ip1 <- conv4
I1130 10:15:20.695492 18231 net.cpp:356] ip1 -> ip1
I1130 10:15:20.695503 18231 net.cpp:96] Setting up ip1
I1130 10:15:20.765969 18231 net.cpp:103] Top shape: 128 1000 1 1 (128000)
I1130 10:15:20.766021 18231 layer_factory.hpp:78] Creating layer ip2
I1130 10:15:20.766036 18231 net.cpp:67] Creating Layer ip2
I1130 10:15:20.766044 18231 net.cpp:394] ip2 <- ip1
I1130 10:15:20.766057 18231 net.cpp:356] ip2 -> ip2
I1130 10:15:20.766069 18231 net.cpp:96] Setting up ip2
I1130 10:15:20.768039 18231 net.cpp:103] Top shape: 128 256 1 1 (32768)
I1130 10:15:20.768077 18231 layer_factory.hpp:78] Creating layer relu1
I1130 10:15:20.768093 18231 net.cpp:67] Creating Layer relu1
I1130 10:15:20.768101 18231 net.cpp:394] relu1 <- ip2
I1130 10:15:20.768110 18231 net.cpp:345] relu1 -> ip2 (in-place)
I1130 10:15:20.768120 18231 net.cpp:96] Setting up relu1
I1130 10:15:20.768146 18231 net.cpp:103] Top shape: 128 256 1 1 (32768)
I1130 10:15:20.768154 18231 layer_factory.hpp:78] Creating layer ip3
I1130 10:15:20.768167 18231 net.cpp:67] Creating Layer ip3
I1130 10:15:20.768173 18231 net.cpp:394] ip3 <- ip2
I1130 10:15:20.768182 18231 net.cpp:356] ip3 -> ip3
I1130 10:15:20.768193 18231 net.cpp:96] Setting up ip3
I1130 10:15:20.768213 18231 net.cpp:103] Top shape: 128 2 1 1 (256)
I1130 10:15:20.768224 18231 layer_factory.hpp:78] Creating layer loss
I1130 10:15:20.768239 18231 net.cpp:67] Creating Layer loss
I1130 10:15:20.768246 18231 net.cpp:394] loss <- ip3
I1130 10:15:20.768254 18231 net.cpp:394] loss <- label
I1130 10:15:20.768265 18231 net.cpp:356] loss -> loss
I1130 10:15:20.768275 18231 net.cpp:96] Setting up loss
I1130 10:15:20.768288 18231 net.cpp:103] Top shape: 1 1 1 1 (1)
I1130 10:15:20.768296 18231 net.cpp:109]     with loss weight 1
I1130 10:15:20.768344 18231 net.cpp:170] loss needs backward computation.
I1130 10:15:20.768352 18231 net.cpp:170] ip3 needs backward computation.
I1130 10:15:20.768357 18231 net.cpp:170] relu1 needs backward computation.
I1130 10:15:20.768363 18231 net.cpp:170] ip2 needs backward computation.
I1130 10:15:20.768369 18231 net.cpp:170] ip1 needs backward computation.
…
I1130 10:15:20.769006 18231 solver.cpp:151] Creating test net (#0) specified by net file: rapidnet.prototxt
I1130 10:15:20.769069 18231 net.cpp:275] The NetState phase (1) differed from the phase (0) specified by a rule in layer ava
I1130 10:15:20.769238 18231 net.cpp:39] Initializing net from parameters: 
name: "RapidNet"
layers {
  top: "data"
  top: "label"
  name: "ava"
  type: DATA
  data_param {
    source: "ava_val_lmdb"
    batch_size: 50
    backend: LMDB
  }
  include {
    phase: TEST
  }
  transform_param {
    scale: 0.00390625
    mirror: false
    crop_size: 224
    mean_file: "ava_val_mean.binaryproto"
  }
}
layers {
  bottom: "data"
  top: "conv1"
  name: "conv1"
  type: CONVOLUTION
  blobs_lr: 1
  blobs_lr: 2
  convolution_param {
    num_output: 64
    kernel_size: 11
    stride: 4
    weight_filler {
      type: "xavier"
    }
    bias_filler {
      type: "constant"
    }
  }
}
layers {
  bottom: "conv1"
  top: "pool1"
  name: "pool1"
  type: POOLING
  pooling_param {
    pool: MAX
    kernel_size: 2
    stride: 2
  }
}
layers {
  bottom: "pool1"
  top: "norm1"
  name: "norm1"
  type: LRN
  lrn_param {
    local_size: 5
    alpha: 0.0001
    beta: 0.75
  }
}
layers {
  bottom: "norm1"
  top: "conv2"
  name: "conv2"
  type: CONVOLUTION
  blobs_lr: 1
  blobs_lr: 2
  convolution_param {
    num_output: 64
    kernel_size: 5
    stride: 1
    weight_filler {
      type: "xavier"
    }
    bias_filler {
      type: "constant"
    }
  }
}
layers {
  bottom: "conv2"
  top: "pool2"
  name: "pool2"
  type: POOLING
  pooling_param {
    pool: MAX
    kernel_size: 2
    stride: 2
  }
}
layers {
  bottom: "pool2"
  top: "norm2"
  name: "norm2"
  type: LRN
  lrn_param {
    local_size: 5
    alpha: 0.0001
    beta: 0.75
  }
}
layers {
  bottom: "norm2"
  top: "conv3"
  name: "conv3"
  type: CONVOLUTION
  blobs_lr: 1
  blobs_lr: 2
  weight_decay: 1
  weight_decay: 0
  convolution_param {
    num_output: 64
    kernel_size: 3
    weight_filler {
      type: "xavier"
    }
    bias_filler {
      type: "constant"
    }
  }
}
layers {
  bottom: "conv3"
  top: "conv4"
  name: "conv4"
  type: CONVOLUTION
  blobs_lr: 1
  blobs_lr: 2
  weight_decay: 1
  weight_decay: 0
  convolution_param {
    num_output: 64
    kernel_size: 3
    weight_filler {
      type: "xavier"
    }
    bias_filler {
      type: "constant"
    }
  }
}
layers {
  bottom: "conv4"
  top: "ip1"
  name: "ip1"
  type: INNER_PRODUCT
  blobs_lr: 1
  blobs_lr: 2
  inner_product_param {
    num_output: 1000
    weight_filler {
      type: "xavier"
    }
    bias_filler {
      type: "constant"
    }
  }
}
layers {
  bottom: "ip1"
  top: "ip2"
  name: "ip2"
  type: INNER_PRODUCT
  blobs_lr: 1
  blobs_lr: 2
  inner_product_param {
    num_output: 256
    weight_filler {
      type: "xavier"
    }
    bias_filler {
      type: "constant"
    }
  }
}
layers {
  bottom: "ip2"
  top: "ip2"
  name: "relu1"
  type: RELU
}
layers {
  bottom: "ip2"
  top: "ip3"
  name: "ip3"
  type: INNER_PRODUCT
  blobs_lr: 1
  blobs_lr: 2
  inner_product_param {
    num_output: 2
    weight_filler {
      type: "xavier"
    }
    bias_filler {
      type: "constant"
    }
  }
}
layers {
  bottom: "ip3"
  bottom: "label"
  top: "accuracy"
  name: "accuracy"
  type: ACCURACY
  include {
    phase: TEST
  }
}
layers {
  bottom: "ip3"
  bottom: "label"
  top: "loss"
  name: "loss"
  type: SOFTMAX_LOSS
}
state {
  phase: TEST
}
I1130 10:15:20.769350 18231 layer_factory.hpp:78] Creating layer ava
I1130 10:15:20.769362 18231 data_transformer.cpp:24] Loading mean file fromava_val_mean.binaryproto
I1130 10:15:20.771775 18231 net.cpp:67] Creating Layer ava
I1130 10:15:20.771843 18231 net.cpp:356] ava -> data
I1130 10:15:20.771863 18231 net.cpp:356] ava -> label
I1130 10:15:20.771875 18231 net.cpp:96] Setting up ava
I1130 10:15:20.771883 18231 data_layer.cpp:32] Opening dataset ava_val_lmdb
I1130 10:15:20.797070 18231 data_layer.cpp:71] output data size: 50,3,224,224
I1130 10:15:20.930264 18231 net.cpp:103] Top shape: 50 3 224 224 (7526400)
I1130 10:15:20.930312 18231 net.cpp:103] Top shape: 50 1 1 1 (50)
I1130 10:15:20.930325 18231 layer_factory.hpp:78] Creating layer label_ava_1_split
I1130 10:15:20.930352 18231 net.cpp:67] Creating Layer label_ava_1_split
I1130 10:15:20.930364 18231 net.cpp:394] label_ava_1_split <- label
I1130 10:15:20.930377 18231 net.cpp:356] label_ava_1_split -> label_ava_1_split_0
I1130 10:15:20.930394 18231 net.cpp:356] label_ava_1_split -> label_ava_1_split_1
I1130 10:15:20.930405 18231 net.cpp:96] Setting up label_ava_1_split
I1130 10:15:20.930413 18231 net.cpp:103] Top shape: 50 1 1 1 (50)
I1130 10:15:20.930420 18231 net.cpp:103] Top shape: 50 1 1 1 (50)
I1130 10:15:20.930428 18231 layer_factory.hpp:78] Creating layer conv1
I1130 10:15:20.930439 18231 net.cpp:67] Creating Layer conv1
I1130 10:15:20.930449 18231 net.cpp:394] conv1 <- data
I1130 10:15:20.930457 18231 net.cpp:356] conv1 -> conv1
I1130 10:15:20.930469 18231 net.cpp:96] Setting up conv1
I1130 10:15:20.930722 18231 net.cpp:103] Top shape: 50 64 54 54 (9331200)
I1130 10:15:20.930742 18231 layer_factory.hpp:78] Creating layer pool1
I1130 10:15:20.930752 18231 net.cpp:67] Creating Layer pool1
I1130 10:15:20.930759 18231 net.cpp:394] pool1 <- conv1
I1130 10:15:20.930768 18231 net.cpp:356] pool1 -> pool1
I1130 10:15:20.930778 18231 net.cpp:96] Setting up pool1
I1130 10:15:20.930791 18231 net.cpp:103] Top shape: 50 64 27 27 (2332800)
I1130 10:15:20.930799 18231 layer_factory.hpp:78] Creating layer norm1
I1130 10:15:20.930809 18231 net.cpp:67] Creating Layer norm1
I1130 10:15:20.930827 18231 net.cpp:394] norm1 <- pool1
I1130 10:15:20.930845 18231 net.cpp:356] norm1 -> norm1
I1130 10:15:20.930855 18231 net.cpp:96] Setting up norm1
I1130 10:15:20.930861 18231 net.cpp:103] Top shape: 50 64 27 27 (2332800)
I1130 10:15:20.930868 18231 layer_factory.hpp:78] Creating layer conv2
I1130 10:15:20.930878 18231 net.cpp:67] Creating Layer conv2
I1130 10:15:20.930884 18231 net.cpp:394] conv2 <- norm1
I1130 10:15:20.930893 18231 net.cpp:356] conv2 -> conv2
I1130 10:15:20.930903 18231 net.cpp:96] Setting up conv2
I1130 10:15:20.932001 18231 net.cpp:103] Top shape: 50 64 23 23 (1692800)
I1130 10:15:20.932030 18231 layer_factory.hpp:78] Creating layer pool2
I1130 10:15:20.932045 18231 net.cpp:67] Creating Layer pool2
I1130 10:15:20.932057 18231 net.cpp:394] pool2 <- conv2
I1130 10:15:20.932071 18231 net.cpp:356] pool2 -> pool2
I1130 10:15:20.932086 18231 net.cpp:96] Setting up pool2
I1130 10:15:20.932103 18231 net.cpp:103] Top shape: 50 64 12 12 (460800)
I1130 10:15:20.932114 18231 layer_factory.hpp:78] Creating layer norm2
I1130 10:15:20.932132 18231 net.cpp:67] Creating Layer norm2
I1130 10:15:20.932145 18231 net.cpp:394] norm2 <- pool2
I1130 10:15:20.932160 18231 net.cpp:356] norm2 -> norm2
I1130 10:15:20.932175 18231 net.cpp:96] Setting up norm2
I1130 10:15:20.932190 18231 net.cpp:103] Top shape: 50 64 12 12 (460800)
I1130 10:15:20.932199 18231 layer_factory.hpp:78] Creating layer conv3
I1130 10:15:20.932209 18231 net.cpp:67] Creating Layer conv3
I1130 10:15:20.932216 18231 net.cpp:394] conv3 <- norm2
I1130 10:15:20.932225 18231 net.cpp:356] conv3 -> conv3
I1130 10:15:20.932236 18231 net.cpp:96] Setting up conv3
I1130 10:15:20.932533 18231 net.cpp:103] Top shape: 50 64 10 10 (320000)
I1130 10:15:20.932550 18231 layer_factory.hpp:78] Creating layer conv4
I1130 10:15:20.932559 18231 net.cpp:67] Creating Layer conv4
I1130 10:15:20.932566 18231 net.cpp:394] conv4 <- conv3
I1130 10:15:20.932575 18231 net.cpp:356] conv4 -> conv4
I1130 10:15:20.932585 18231 net.cpp:96] Setting up conv4
I1130 10:15:20.932909 18231 net.cpp:103] Top shape: 50 64 8 8 (204800)
I1130 10:15:20.932927 18231 layer_factory.hpp:78] Creating layer ip1
I1130 10:15:20.932940 18231 net.cpp:67] Creating Layer ip1
I1130 10:15:20.932947 18231 net.cpp:394] ip1 <- conv4
I1130 10:15:20.932957 18231 net.cpp:356] ip1 -> ip1
I1130 10:15:20.932968 18231 net.cpp:96] Setting up ip1
I1130 10:15:20.968483 18231 net.cpp:103] Top shape: 50 1000 1 1 (50000)
I1130 10:15:20.968535 18231 layer_factory.hpp:78] Creating layer ip2
I1130 10:15:20.968549 18231 net.cpp:67] Creating Layer ip2
I1130 10:15:20.968559 18231 net.cpp:394] ip2 <- ip1
I1130 10:15:20.968572 18231 net.cpp:356] ip2 -> ip2
I1130 10:15:20.968585 18231 net.cpp:96] Setting up ip2
I1130 10:15:20.970474 18231 net.cpp:103] Top shape: 50 256 1 1 (12800)
I1130 10:15:20.970490 18231 layer_factory.hpp:78] Creating layer relu1
I1130 10:15:20.970499 18231 net.cpp:67] Creating Layer relu1
I1130 10:15:20.970506 18231 net.cpp:394] relu1 <- ip2
I1130 10:15:20.970515 18231 net.cpp:345] relu1 -> ip2 (in-place)
I1130 10:15:20.970523 18231 net.cpp:96] Setting up relu1
I1130 10:15:20.970542 18231 net.cpp:103] Top shape: 50 256 1 1 (12800)
I1130 10:15:20.970549 18231 layer_factory.hpp:78] Creating layer ip3
I1130 10:15:20.970557 18231 net.cpp:67] Creating Layer ip3
I1130 10:15:20.970564 18231 net.cpp:394] ip3 <- ip2
I1130 10:15:20.970572 18231 net.cpp:356] ip3 -> ip3
I1130 10:15:20.970582 18231 net.cpp:96] Setting up ip3
I1130 10:15:20.970597 18231 net.cpp:103] Top shape: 50 2 1 1 (100)
I1130 10:15:20.970607 18231 layer_factory.hpp:78] Creating layer ip3_ip3_0_split
I1130 10:15:20.970615 18231 net.cpp:67] Creating Layer ip3_ip3_0_split
I1130 10:15:20.970621 18231 net.cpp:394] ip3_ip3_0_split <- ip3
I1130 10:15:20.970630 18231 net.cpp:356] ip3_ip3_0_split -> ip3_ip3_0_split_0
I1130 10:15:20.970640 18231 net.cpp:356] ip3_ip3_0_split -> ip3_ip3_0_split_1
I1130 10:15:20.970650 18231 net.cpp:96] Setting up ip3_ip3_0_split
I1130 10:15:20.970659 18231 net.cpp:103] Top shape: 50 2 1 1 (100)
I1130 10:15:20.970672 18231 net.cpp:103] Top shape: 50 2 1 1 (100)
I1130 10:15:20.970688 18231 layer_factory.hpp:78] Creating layer accuracy
I1130 10:15:20.970700 18231 net.cpp:67] Creating Layer accuracy
I1130 10:15:20.970707 18231 net.cpp:394] accuracy <- ip3_ip3_0_split_0
I1130 10:15:20.970715 18231 net.cpp:394] accuracy <- label_ava_1_split_0
I1130 10:15:20.970722 18231 net.cpp:356] accuracy -> accuracy
I1130 10:15:20.970731 18231 net.cpp:96] Setting up accuracy
I1130 10:15:20.970741 18231 net.cpp:103] Top shape: 1 1 1 1 (1)
I1130 10:15:20.970747 18231 layer_factory.hpp:78] Creating layer loss
I1130 10:15:20.970757 18231 net.cpp:67] Creating Layer loss
I1130 10:15:20.970763 18231 net.cpp:394] loss <- ip3_ip3_0_split_1
I1130 10:15:20.970770 18231 net.cpp:394] loss <- label_ava_1_split_1
I1130 10:15:20.970778 18231 net.cpp:356] loss -> loss
I1130 10:15:20.970788 18231 net.cpp:96] Setting up loss
I1130 10:15:20.970798 18231 net.cpp:103] Top shape: 1 1 1 1 (1)
I1130 10:15:20.970804 18231 net.cpp:109]     with loss weight 1
I1130 10:15:20.970819 18231 net.cpp:170] loss needs backward computation.
I1130 10:15:20.970825 18231 net.cpp:172] accuracy does not need backward computation.
I1130 10:15:20.970831 18231 net.cpp:170] ip3_ip3_0_split needs backward computation.
I1130 10:15:20.970839 18231 net.cpp:170] ip3 needs backward computation.
I1130 10:15:20.970845 18231 net.cpp:170] relu1 needs backward computation.
…
